…
В файле use.py - код для её использования. Запуск через консоль. Далее потребуют от вас ввод пути до файла, который надо проанализировать.
Пример использования:
    (.venv) PS C:\Poekti\nSeti\my> py .\use.py
    Введите путь к файлу
    C:\Poekti\nSeti\my\test_horse2.jpg
    Лошадь с вероятностью  0.84280056 , МРТ мозга с вероятностью  0.15719949


-----------------------------------------------------------------
Лог консоли:

Model: "sequential"
_________________________________________________________________
Layer (type)                 Output Shape              Param #
=================================================================
conv2d (Conv2D)              (None, 185, 185, 16)      4112
_________________________________________________________________
max_pooling2d (MaxPooling2D) (None, 92, 92, 16)        0
_________________________________________________________________
dropout (Dropout)            (None, 92, 92, 16)        0
_________________________________________________________________
conv2d_1 (Conv2D)            (None, 77, 77, 32)        131104
_________________________________________________________________
max_pooling2d_1 (MaxPooling2 (None, 38, 38, 32)        0
_________________________________________________________________
dropout_1 (Dropout)          (None, 38, 38, 32)        0
_________________________________________________________________
conv2d_2 (Conv2D)            (None, 23, 23, 64)        524352
_________________________________________________________________
max_pooling2d_2 (MaxPooling2 (None, 11, 11, 64)        0
_________________________________________________________________
flatten (Flatten)            (None, 7744)              0
_________________________________________________________________
dense (Dense)                (None, 64)                495680
_________________________________________________________________
dropout_2 (Dropout)          (None, 64)                0
_________________________________________________________________
dense_1 (Dense)              (None, 2)                 130
=================================================================
Total params: 1,155,378
Trainable params: 1,155,378
Non-trainable params: 0
_________________________________________________________________
None
Epoch 1/7
2473/2473 [==============================] - 367s 148ms/step - loss: 0.6675 - accuracy: 0.5059 - val_loss: 0.6425 - val_accuracy: 0.5058
Epoch 2/7
2473/2473 [==============================] - 374s 151ms/step - loss: 0.5738 - accuracy: 0.5904 - val_loss: 0.5693 - val_accuracy: 0.7965
…
